…
['CoastalCliffs', 'CoastalRocky', 'CoastalWaterWay', 'Dunes', 'ManMadeStructures', 'SaltMarshes', 'SandyBeaches', 'TidalFlats']
Rank: 0
Creating fixed-feature model: mobilenetv2
=============================================================================================================================
Layer (type (var_name))                       Input Shape          Output Shape         Param #              Trainable
=============================================================================================================================
MobileNetV2 (MobileNetV2)                     [32, 3, 224, 224]    [32, 8]              --                   Partial
├─Sequential (features)                       [32, 3, 224, 224]    [32, 1280, 7, 7]     --                   Partial
│    └─Conv2dNormActivation (0)               [32, 3, 224, 224]    [32, 32, 112, 112]   --                   False
│    │    └─Conv2d (0)                        [32, 3, 224, 224]    [32, 32, 112, 112]   (864)                False
│    │    └─BatchNorm2d (1)                   [32, 32, 112, 112]   [32, 32, 112, 112]   (64)                 False
│    │    └─ReLU6 (2)                         [32, 32, 112, 112]   [32, 32, 112, 112]   --                   --
│    └─InvertedResidual (1)                   [32, 32, 112, 112]   [32, 16, 112, 112]   --                   False
│    │    └─Sequential (conv)                 [32, 32, 112, 112]   [32, 16, 112, 112]   (896)                False
│    └─InvertedResidual (2)                   [32, 16, 112, 112]   [32, 24, 56, 56]     --                   False
│    │    └─Sequential (conv)                 [32, 16, 112, 112]   [32, 24, 56, 56]     (5,136)              False
│    └─InvertedResidual (3)                   [32, 24, 56, 56]     [32, 24, 56, 56]     --                   False
│    │    └─Sequential (conv)                 [32, 24, 56, 56]     [32, 24, 56, 56]     (8,832)              False
│    └─InvertedResidual (4)                   [32, 24, 56, 56]     [32, 32, 28, 28]     --                   False
│    │    └─Sequential (conv)                 [32, 24, 56, 56]     [32, 32, 28, 28]     (10,000)             False
│    └─InvertedResidual (5)                   [32, 32, 28, 28]     [32, 32, 28, 28]     --                   False
│    │    └─Sequential (conv)                 [32, 32, 28, 28]     [32, 32, 28, 28]     (14,848)             False
│    └─InvertedResidual (6)                   [32, 32, 28, 28]     [32, 32, 28, 28]     --                   False
│    │    └─Sequential (conv)                 [32, 32, 28, 28]     [32, 32, 28, 28]     (14,848)             False
│    └─InvertedResidual (7)                   [32, 32, 28, 28]     [32, 64, 14, 14]     --                   False
│    │    └─Sequential (conv)                 [32, 32, 28, 28]     [32, 64, 14, 14]     (21,056)             False
│    └─InvertedResidual (8)                   [32, 64, 14, 14]     [32, 64, 14, 14]     --                   False
│    │    └─Sequential (conv)                 [32, 64, 14, 14]     [32, 64, 14, 14]     (54,272)             False
│    └─InvertedResidual (9)                   [32, 64, 14, 14]     [32, 64, 14, 14]     --                   False
│    │    └─Sequential (conv)                 [32, 64, 14, 14]     [32, 64, 14, 14]     (54,272)             False
│    └─InvertedResidual (10)                  [32, 64, 14, 14]     [32, 64, 14, 14]     --                   False
│    │    └─Sequential (conv)                 [32, 64, 14, 14]     [32, 64, 14, 14]     (54,272)             False
│    └─InvertedResidual (11)                  [32, 64, 14, 14]     [32, 96, 14, 14]     --                   False
│    │    └─Sequential (conv)                 [32, 64, 14, 14]     [32, 96, 14, 14]     (66,624)             False
│    └─InvertedResidual (12)                  [32, 96, 14, 14]     [32, 96, 14, 14]     --                   False
│    │    └─Sequential (conv)                 [32, 96, 14, 14]     [32, 96, 14, 14]     (118,272)            False
│    └─InvertedResidual (13)                  [32, 96, 14, 14]     [32, 96, 14, 14]     --                   True
│    │    └─Sequential (conv)                 [32, 96, 14, 14]     [32, 96, 14, 14]     118,272              True
│    └─InvertedResidual (14)                  [32, 96, 14, 14]     [32, 160, 7, 7]      --                   False
│    │    └─Sequential (conv)                 [32, 96, 14, 14]     [32, 160, 7, 7]      (155,264)            False
│    └─InvertedResidual (15)                  [32, 160, 7, 7]      [32, 160, 7, 7]      --                   False
│    │    └─Sequential (conv)                 [32, 160, 7, 7]      [32, 160, 7, 7]      (320,000)            False
│    └─InvertedResidual (16)                  [32, 160, 7, 7]      [32, 160, 7, 7]      --                   False
│    │    └─Sequential (conv)                 [32, 160, 7, 7]      [32, 160, 7, 7]      (320,000)            False
│    └─InvertedResidual (17)                  [32, 160, 7, 7]      [32, 320, 7, 7]      --                   False
│    │    └─Sequential (conv)                 [32, 160, 7, 7]      [32, 320, 7, 7]      (473,920)            False
│    └─Conv2dNormActivation (18)              [32, 320, 7, 7]      [32, 1280, 7, 7]     --                   False
│    │    └─Conv2d (0)                        [32, 320, 7, 7]      [32, 1280, 7, 7]     (409,600)            False
│    │    └─BatchNorm2d (1)                   [32, 1280, 7, 7]     [32, 1280, 7, 7]     (2,560)              False
│    │    └─ReLU6 (2)                         [32, 1280, 7, 7]     [32, 1280, 7, 7]     --                   --
├─Sequential (classifier)                     [32, 1280]           [32, 8]              --                   True
│    └─Dropout (0)                            [32, 1280]           [32, 1280]           --                   --
│    └─Linear (1)                             [32, 1280]           [32, 8]              10,248               True
=============================================================================================================================
Total params: 2,234,120
Trainable params: 128,520
Non-trainable params: 2,105,600
Total mult-adds (Units.GIGABYTES): 9.59
=============================================================================================================================
…
