…
['CoastalCliffs', 'CoastalRocky', 'CoastalWaterWay', 'Dunes', 'ManMadeStructures', 'SaltMarshes', 'SandyBeaches', 'TidalFlats']
Rank: 0
Creating fixed-feature model: mobilenetv2
=============================================================================================================================
Layer (type (var_name))                       Input Shape          Output Shape         Param #              Trainable
=============================================================================================================================
MobileNetV2 (MobileNetV2)                     [8, 3, 224, 224]     [8, 8]               --                   Partial
├─Sequential (features)                       [8, 3, 224, 224]     [8, 1280, 7, 7]      --                   Partial
│    └─Conv2dNormActivation (0)               [8, 3, 224, 224]     [8, 32, 112, 112]    --                   False
│    │    └─Conv2d (0)                        [8, 3, 224, 224]     [8, 32, 112, 112]    (864)                False
│    │    └─BatchNorm2d (1)                   [8, 32, 112, 112]    [8, 32, 112, 112]    (64)                 False
│    │    └─ReLU6 (2)                         [8, 32, 112, 112]    [8, 32, 112, 112]    --                   --
│    └─InvertedResidual (1)                   [8, 32, 112, 112]    [8, 16, 112, 112]    --                   False
│    │    └─Sequential (conv)                 [8, 32, 112, 112]    [8, 16, 112, 112]    (896)                False
│    └─InvertedResidual (2)                   [8, 16, 112, 112]    [8, 24, 56, 56]      --                   False
│    │    └─Sequential (conv)                 [8, 16, 112, 112]    [8, 24, 56, 56]      (5,136)              False
│    └─InvertedResidual (3)                   [8, 24, 56, 56]      [8, 24, 56, 56]      --                   False
│    │    └─Sequential (conv)                 [8, 24, 56, 56]      [8, 24, 56, 56]      (8,832)              False
│    └─InvertedResidual (4)                   [8, 24, 56, 56]      [8, 32, 28, 28]      --                   False
│    │    └─Sequential (conv)                 [8, 24, 56, 56]      [8, 32, 28, 28]      (10,000)             False
│    └─InvertedResidual (5)                   [8, 32, 28, 28]      [8, 32, 28, 28]      --                   False
│    │    └─Sequential (conv)                 [8, 32, 28, 28]      [8, 32, 28, 28]      (14,848)             False
│    └─InvertedResidual (6)                   [8, 32, 28, 28]      [8, 32, 28, 28]      --                   False
│    │    └─Sequential (conv)                 [8, 32, 28, 28]      [8, 32, 28, 28]      (14,848)             False
│    └─InvertedResidual (7)                   [8, 32, 28, 28]      [8, 64, 14, 14]      --                   False
│    │    └─Sequential (conv)                 [8, 32, 28, 28]      [8, 64, 14, 14]      (21,056)             False
│    └─InvertedResidual (8)                   [8, 64, 14, 14]      [8, 64, 14, 14]      --                   False
│    │    └─Sequential (conv)                 [8, 64, 14, 14]      [8, 64, 14, 14]      (54,272)             False
│    └─InvertedResidual (9)                   [8, 64, 14, 14]      [8, 64, 14, 14]      --                   False
│    │    └─Sequential (conv)                 [8, 64, 14, 14]      [8, 64, 14, 14]      (54,272)             False
│    └─InvertedResidual (10)                  [8, 64, 14, 14]      [8, 64, 14, 14]      --                   False
│    │    └─Sequential (conv)                 [8, 64, 14, 14]      [8, 64, 14, 14]      (54,272)             False
│    └─InvertedResidual (11)                  [8, 64, 14, 14]      [8, 96, 14, 14]      --                   True
│    │    └─Sequential (conv)                 [8, 64, 14, 14]      [8, 96, 14, 14]      66,624               True
│    └─InvertedResidual (12)                  [8, 96, 14, 14]      [8, 96, 14, 14]      --                   False
│    │    └─Sequential (conv)                 [8, 96, 14, 14]      [8, 96, 14, 14]      (118,272)            False
│    └─InvertedResidual (13)                  [8, 96, 14, 14]      [8, 96, 14, 14]      --                   False
│    │    └─Sequential (conv)                 [8, 96, 14, 14]      [8, 96, 14, 14]      (118,272)            False
│    └─InvertedResidual (14)                  [8, 96, 14, 14]      [8, 160, 7, 7]       --                   False
│    │    └─Sequential (conv)                 [8, 96, 14, 14]      [8, 160, 7, 7]       (155,264)            False
│    └─InvertedResidual (15)                  [8, 160, 7, 7]       [8, 160, 7, 7]       --                   False
│    │    └─Sequential (conv)                 [8, 160, 7, 7]       [8, 160, 7, 7]       (320,000)            False
│    └─InvertedResidual (16)                  [8, 160, 7, 7]       [8, 160, 7, 7]       --                   False
│    │    └─Sequential (conv)                 [8, 160, 7, 7]       [8, 160, 7, 7]       (320,000)            False
│    └─InvertedResidual (17)                  [8, 160, 7, 7]       [8, 320, 7, 7]       --                   False
│    │    └─Sequential (conv)                 [8, 160, 7, 7]       [8, 320, 7, 7]       (473,920)            False
│    └─Conv2dNormActivation (18)              [8, 320, 7, 7]       [8, 1280, 7, 7]      --                   False
│    │    └─Conv2d (0)                        [8, 320, 7, 7]       [8, 1280, 7, 7]      (409,600)            False
│    │    └─BatchNorm2d (1)                   [8, 1280, 7, 7]      [8, 1280, 7, 7]      (2,560)              False
│    │    └─ReLU6 (2)                         [8, 1280, 7, 7]      [8, 1280, 7, 7]      --                   --
├─Sequential (classifier)                     [8, 1280]            [8, 8]               --                   True
│    └─Dropout (0)                            [8, 1280]            [8, 1280]            --                   --
│    └─Linear (1)                             [8, 1280]            [8, 8]               10,248               True
=============================================================================================================================
Total params: 2,234,120
Trainable params: 76,872
Non-trainable params: 2,157,248
Total mult-adds (Units.GIGABYTES): 2.40
=============================================================================================================================
Input size (MB): 4.82
…
