…
Classes: 
['CoastalCliffs', 'CoastalRocky', 'CoastalWaterWay', 'Dunes', 'ManMadeStructures', 'SaltMarshes', 'SandyBeaches', 'TidalFlats']
Rank: 0
Creating fixed-feature model: resnet50
========================================================================================================================
Layer (type (var_name))                  Input Shape          Output Shape         Param #              Trainable
========================================================================================================================
ResNet (ResNet)                          [8, 3, 224, 224]     [8, 1000]            --                   False
├─Conv2d (conv1)                         [8, 3, 224, 224]     [8, 64, 112, 112]    (9,408)              False
├─BatchNorm2d (bn1)                      [8, 64, 112, 112]    [8, 64, 112, 112]    (128)                False
├─ReLU (relu)                            [8, 64, 112, 112]    [8, 64, 112, 112]    --                   --
├─MaxPool2d (maxpool)                    [8, 64, 112, 112]    [8, 64, 56, 56]      --                   --
├─Sequential (layer1)                    [8, 64, 56, 56]      [8, 256, 56, 56]     --                   False
│    └─Bottleneck (0)                    [8, 64, 56, 56]      [8, 256, 56, 56]     --                   False
│    │    └─Conv2d (conv1)               [8, 64, 56, 56]      [8, 64, 56, 56]      (4,096)              False
│    │    └─BatchNorm2d (bn1)            [8, 64, 56, 56]      [8, 64, 56, 56]      (128)                False
│    │    └─ReLU (relu)                  [8, 64, 56, 56]      [8, 64, 56, 56]      --                   --
│    │    └─Conv2d (conv2)               [8, 64, 56, 56]      [8, 64, 56, 56]      (36,864)             False
│    │    └─BatchNorm2d (bn2)            [8, 64, 56, 56]      [8, 64, 56, 56]      (128)                False
│    │    └─ReLU (relu)                  [8, 64, 56, 56]      [8, 64, 56, 56]      --                   --
│    │    └─Conv2d (conv3)               [8, 64, 56, 56]      [8, 256, 56, 56]     (16,384)             False
│    │    └─BatchNorm2d (bn3)            [8, 256, 56, 56]     [8, 256, 56, 56]     (512)                False
│    │    └─Sequential (downsample)      [8, 64, 56, 56]      [8, 256, 56, 56]     (16,896)             False
│    │    └─ReLU (relu)                  [8, 256, 56, 56]     [8, 256, 56, 56]     --                   --
│    └─Bottleneck (1)                    [8, 256, 56, 56]     [8, 256, 56, 56]     --                   False
│    │    └─Conv2d (conv1)               [8, 256, 56, 56]     [8, 64, 56, 56]      (16,384)             False
│    │    └─BatchNorm2d (bn1)            [8, 64, 56, 56]      [8, 64, 56, 56]      (128)                False
│    │    └─ReLU (relu)                  [8, 64, 56, 56]      [8, 64, 56, 56]      --                   --
│    │    └─Conv2d (conv2)               [8, 64, 56, 56]      [8, 64, 56, 56]      (36,864)             False
│    │    └─BatchNorm2d (bn2)            [8, 64, 56, 56]      [8, 64, 56, 56]      (128)                False
│    │    └─ReLU (relu)                  [8, 64, 56, 56]      [8, 64, 56, 56]      --                   --
│    │    └─Conv2d (conv3)               [8, 64, 56, 56]      [8, 256, 56, 56]     (16,384)             False
│    │    └─BatchNorm2d (bn3)            [8, 256, 56, 56]     [8, 256, 56, 56]     (512)                False
│    │    └─ReLU (relu)                  [8, 256, 56, 56]     [8, 256, 56, 56]     --                   --
│    └─Bottleneck (2)                    [8, 256, 56, 56]     [8, 256, 56, 56]     --                   False
│    │    └─Conv2d (conv1)               [8, 256, 56, 56]     [8, 64, 56, 56]      (16,384)             False
│    │    └─BatchNorm2d (bn1)            [8, 64, 56, 56]      [8, 64, 56, 56]      (128)                False
│    │    └─ReLU (relu)                  [8, 64, 56, 56]      [8, 64, 56, 56]      --                   --
│    │    └─Conv2d (conv2)               [8, 64, 56, 56]      [8, 64, 56, 56]      (36,864)             False
│    │    └─BatchNorm2d (bn2)            [8, 64, 56, 56]      [8, 64, 56, 56]      (128)                False
│    │    └─ReLU (relu)                  [8, 64, 56, 56]      [8, 64, 56, 56]      --                   --
│    │    └─Conv2d (conv3)               [8, 64, 56, 56]      [8, 256, 56, 56]     (16,384)             False
│    │    └─BatchNorm2d (bn3)            [8, 256, 56, 56]     [8, 256, 56, 56]     (512)                False
│    │    └─ReLU (relu)                  [8, 256, 56, 56]     [8, 256, 56, 56]     --                   --
├─Sequential (layer2)                    [8, 256, 56, 56]     [8, 512, 28, 28]     --                   False
│    └─Bottleneck (0)                    [8, 256, 56, 56]     [8, 512, 28, 28]     --                   False
│    │    └─Conv2d (conv1)               [8, 256, 56, 56]     [8, 128, 56, 56]     (32,768)             False
│    │    └─BatchNorm2d (bn1)            [8, 128, 56, 56]     [8, 128, 56, 56]     (256)                False
│    │    └─ReLU (relu)                  [8, 128, 56, 56]     [8, 128, 56, 56]     --                   --
│    │    └─Conv2d (conv2)               [8, 128, 56, 56]     [8, 128, 28, 28]     (147,456)            False
│    │    └─BatchNorm2d (bn2)            [8, 128, 28, 28]     [8, 128, 28, 28]     (256)                False
│    │    └─ReLU (relu)                  [8, 128, 28, 28]     [8, 128, 28, 28]     --                   --
│    │    └─Conv2d (conv3)               [8, 128, 28, 28]     [8, 512, 28, 28]     (65,536)             False
│    │    └─BatchNorm2d (bn3)            [8, 512, 28, 28]     [8, 512, 28, 28]     (1,024)              False
│    │    └─Sequential (downsample)      [8, 256, 56, 56]     [8, 512, 28, 28]     (132,096)            False
│    │    └─ReLU (relu)                  [8, 512, 28, 28]     [8, 512, 28, 28]     --                   --
│    └─Bottleneck (1)                    [8, 512, 28, 28]     [8, 512, 28, 28]     --                   False
│    │    └─Conv2d (conv1)               [8, 512, 28, 28]     [8, 128, 28, 28]     (65,536)             False
│    │    └─BatchNorm2d (bn1)            [8, 128, 28, 28]     [8, 128, 28, 28]     (256)                False
│    │    └─ReLU (relu)                  [8, 128, 28, 28]     [8, 128, 28, 28]     --                   --
│    │    └─Conv2d (conv2)               [8, 128, 28, 28]     [8, 128, 28, 28]     (147,456)            False
│    │    └─BatchNorm2d (bn2)            [8, 128, 28, 28]     [8, 128, 28, 28]     (256)                False
│    │    └─ReLU (relu)                  [8, 128, 28, 28]     [8, 128, 28, 28]     --                   --
│    │    └─Conv2d (conv3)               [8, 128, 28, 28]     [8, 512, 28, 28]     (65,536)             False
│    │    └─BatchNorm2d (bn3)            [8, 512, 28, 28]     [8, 512, 28, 28]     (1,024)              False
│    │    └─ReLU (relu)                  [8, 512, 28, 28]     [8, 512, 28, 28]     --                   --
│    └─Bottleneck (2)                    [8, 512, 28, 28]     [8, 512, 28, 28]     --                   False
│    │    └─Conv2d (conv1)               [8, 512, 28, 28]     [8, 128, 28, 28]     (65,536)             False
│    │    └─BatchNorm2d (bn1)            [8, 128, 28, 28]     [8, 128, 28, 28]     (256)                False
│    │    └─ReLU (relu)                  [8, 128, 28, 28]     [8, 128, 28, 28]     --                   --
│    │    └─Conv2d (conv2)               [8, 128, 28, 28]     [8, 128, 28, 28]     (147,456)            False
│    │    └─BatchNorm2d (bn2)            [8, 128, 28, 28]     [8, 128, 28, 28]     (256)                False
│    │    └─ReLU (relu)                  [8, 128, 28, 28]     [8, 128, 28, 28]     --                   --
│    │    └─Conv2d (conv3)               [8, 128, 28, 28]     [8, 512, 28, 28]     (65,536)             False
│    │    └─BatchNorm2d (bn3)            [8, 512, 28, 28]     [8, 512, 28, 28]     (1,024)              False
│    │    └─ReLU (relu)                  [8, 512, 28, 28]     [8, 512, 28, 28]     --                   --
│    └─Bottleneck (3)                    [8, 512, 28, 28]     [8, 512, 28, 28]     --                   False
│    │    └─Conv2d (conv1)               [8, 512, 28, 28]     [8, 128, 28, 28]     (65,536)             False
│    │    └─BatchNorm2d (bn1)            [8, 128, 28, 28]     [8, 128, 28, 28]     (256)                False
│    │    └─ReLU (relu)                  [8, 128, 28, 28]     [8, 128, 28, 28]     --                   --
│    │    └─Conv2d (conv2)               [8, 128, 28, 28]     [8, 128, 28, 28]     (147,456)            False
│    │    └─BatchNorm2d (bn2)            [8, 128, 28, 28]     [8, 128, 28, 28]     (256)                False
│    │    └─ReLU (relu)                  [8, 128, 28, 28]     [8, 128, 28, 28]     --                   --
│    │    └─Conv2d (conv3)               [8, 128, 28, 28]     [8, 512, 28, 28]     (65,536)             False
│    │    └─BatchNorm2d (bn3)            [8, 512, 28, 28]     [8, 512, 28, 28]     (1,024)              False
│    │    └─ReLU (relu)                  [8, 512, 28, 28]     [8, 512, 28, 28]     --                   --
├─Sequential (layer3)                    [8, 512, 28, 28]     [8, 1024, 14, 14]    --                   False
│    └─Bottleneck (0)                    [8, 512, 28, 28]     [8, 1024, 14, 14]    --                   False
│    │    └─Conv2d (conv1)               [8, 512, 28, 28]     [8, 256, 28, 28]     (131,072)            False
│    │    └─BatchNorm2d (bn1)            [8, 256, 28, 28]     [8, 256, 28, 28]     (512)                False
│    │    └─ReLU (relu)                  [8, 256, 28, 28]     [8, 256, 28, 28]     --                   --
│    │    └─Conv2d (conv2)               [8, 256, 28, 28]     [8, 256, 14, 14]     (589,824)            False
│    │    └─BatchNorm2d (bn2)            [8, 256, 14, 14]     [8, 256, 14, 14]     (512)                False
│    │    └─ReLU (relu)                  [8, 256, 14, 14]     [8, 256, 14, 14]     --                   --
│    │    └─Conv2d (conv3)               [8, 256, 14, 14]     [8, 1024, 14, 14]    (262,144)            False
│    │    └─BatchNorm2d (bn3)            [8, 1024, 14, 14]    [8, 1024, 14, 14]    (2,048)              False
│    │    └─Sequential (downsample)      [8, 512, 28, 28]     [8, 1024, 14, 14]    (526,336)            False
│    │    └─ReLU (relu)                  [8, 1024, 14, 14]    [8, 1024, 14, 14]    --                   --
│    └─Bottleneck (1)                    [8, 1024, 14, 14]    [8, 1024, 14, 14]    --                   False
│    │    └─Conv2d (conv1)               [8, 1024, 14, 14]    [8, 256, 14, 14]     (262,144)            False
│    │    └─BatchNorm2d (bn1)            [8, 256, 14, 14]     [8, 256, 14, 14]     (512)                False
│    │    └─ReLU (relu)                  [8, 256, 14, 14]     [8, 256, 14, 14]     --                   --
│    │    └─Conv2d (conv2)               [8, 256, 14, 14]     [8, 256, 14, 14]     (589,824)            False
│    │    └─BatchNorm2d (bn2)            [8, 256, 14, 14]     [8, 256, 14, 14]     (512)                False
│    │    └─ReLU (relu)                  [8, 256, 14, 14]     [8, 256, 14, 14]     --                   --
│    │    └─Conv2d (conv3)               [8, 256, 14, 14]     [8, 1024, 14, 14]    (262,144)            False
│    │    └─BatchNorm2d (bn3)            [8, 1024, 14, 14]    [8, 1024, 14, 14]    (2,048)              False
│    │    └─ReLU (relu)                  [8, 1024, 14, 14]    [8, 1024, 14, 14]    --                   --
│    └─Bottleneck (2)                    [8, 1024, 14, 14]    [8, 1024, 14, 14]    --                   False
│    │    └─Conv2d (conv1)               [8, 1024, 14, 14]    [8, 256, 14, 14]     (262,144)            False
│    │    └─BatchNorm2d (bn1)            [8, 256, 14, 14]     [8, 256, 14, 14]     (512)                False
│    │    └─ReLU (relu)                  [8, 256, 14, 14]     [8, 256, 14, 14]     --                   --
│    │    └─Conv2d (conv2)               [8, 256, 14, 14]     [8, 256, 14, 14]     (589,824)            False
│    │    └─BatchNorm2d (bn2)            [8, 256, 14, 14]     [8, 256, 14, 14]     (512)                False
│    │    └─ReLU (relu)                  [8, 256, 14, 14]     [8, 256, 14, 14]     --                   --
│    │    └─Conv2d (conv3)               [8, 256, 14, 14]     [8, 1024, 14, 14]    (262,144)            False
│    │    └─BatchNorm2d (bn3)            [8, 1024, 14, 14]    [8, 1024, 14, 14]    (2,048)              False
│    │    └─ReLU (relu)                  [8, 1024, 14, 14]    [8, 1024, 14, 14]    --                   --
│    └─Bottleneck (3)                    [8, 1024, 14, 14]    [8, 1024, 14, 14]    --                   False
│    │    └─Conv2d (conv1)               [8, 1024, 14, 14]    [8, 256, 14, 14]     (262,144)            False
│    │    └─BatchNorm2d (bn1)            [8, 256, 14, 14]     [8, 256, 14, 14]     (512)                False
│    │    └─ReLU (relu)                  [8, 256, 14, 14]     [8, 256, 14, 14]     --                   --
│    │    └─Conv2d (conv2)               [8, 256, 14, 14]     [8, 256, 14, 14]     (589,824)            False
│    │    └─BatchNorm2d (bn2)            [8, 256, 14, 14]     [8, 256, 14, 14]     (512)                False
│    │    └─ReLU (relu)                  [8, 256, 14, 14]     [8, 256, 14, 14]     --                   --
│    │    └─Conv2d (conv3)               [8, 256, 14, 14]     [8, 1024, 14, 14]    (262,144)            False
│    │    └─BatchNorm2d (bn3)            [8, 1024, 14, 14]    [8, 1024, 14, 14]    (2,048)              False
│    │    └─ReLU (relu)                  [8, 1024, 14, 14]    [8, 1024, 14, 14]    --                   --
│    └─Bottleneck (4)                    [8, 1024, 14, 14]    [8, 1024, 14, 14]    --                   False
│    │    └─Conv2d (conv1)               [8, 1024, 14, 14]    [8, 256, 14, 14]     (262,144)            False
│    │    └─BatchNorm2d (bn1)            [8, 256, 14, 14]     [8, 256, 14, 14]     (512)                False
│    │    └─ReLU (relu)                  [8, 256, 14, 14]     [8, 256, 14, 14]     --                   --
│    │    └─Conv2d (conv2)               [8, 256, 14, 14]     [8, 256, 14, 14]     (589,824)            False
│    │    └─BatchNorm2d (bn2)            [8, 256, 14, 14]     [8, 256, 14, 14]     (512)                False
│    │    └─ReLU (relu)                  [8, 256, 14, 14]     [8, 256, 14, 14]     --                   --
│    │    └─Conv2d (conv3)               [8, 256, 14, 14]     [8, 1024, 14, 14]    (262,144)            False
│    │    └─BatchNorm2d (bn3)            [8, 1024, 14, 14]    [8, 1024, 14, 14]    (2,048)              False
│    │    └─ReLU (relu)                  [8, 1024, 14, 14]    [8, 1024, 14, 14]    --                   --
│    └─Bottleneck (5)                    [8, 1024, 14, 14]    [8, 1024, 14, 14]    --                   False
│    │    └─Conv2d (conv1)               [8, 1024, 14, 14]    [8, 256, 14, 14]     (262,144)            False
│    │    └─BatchNorm2d (bn1)            [8, 256, 14, 14]     [8, 256, 14, 14]     (512)                False
│    │    └─ReLU (relu)                  [8, 256, 14, 14]     [8, 256, 14, 14]     --                   --
│    │    └─Conv2d (conv2)               [8, 256, 14, 14]     [8, 256, 14, 14]     (589,824)            False
│    │    └─BatchNorm2d (bn2)            [8, 256, 14, 14]     [8, 256, 14, 14]     (512)                False
│    │    └─ReLU (relu)                  [8, 256, 14, 14]     [8, 256, 14, 14]     --                   --
│    │    └─Conv2d (conv3)               [8, 256, 14, 14]     [8, 1024, 14, 14]    (262,144)            False
│    │    └─BatchNorm2d (bn3)            [8, 1024, 14, 14]    [8, 1024, 14, 14]    (2,048)              False
│    │    └─ReLU (relu)                  [8, 1024, 14, 14]    [8, 1024, 14, 14]    --                   --
├─Sequential (layer4)                    [8, 1024, 14, 14]    [8, 2048, 7, 7]      --                   False
│    └─Bottleneck (0)                    [8, 1024, 14, 14]    [8, 2048, 7, 7]      --                   False
│    │    └─Conv2d (conv1)               [8, 1024, 14, 14]    [8, 512, 14, 14]     (524,288)            False
│    │    └─BatchNorm2d (bn1)            [8, 512, 14, 14]     [8, 512, 14, 14]     (1,024)              False
│    │    └─ReLU (relu)                  [8, 512, 14, 14]     [8, 512, 14, 14]     --                   --
│    │    └─Conv2d (conv2)               [8, 512, 14, 14]     [8, 512, 7, 7]       (2,359,296)          False
│    │    └─BatchNorm2d (bn2)            [8, 512, 7, 7]       [8, 512, 7, 7]       (1,024)              False
│    │    └─ReLU (relu)                  [8, 512, 7, 7]       [8, 512, 7, 7]       --                   --
│    │    └─Conv2d (conv3)               [8, 512, 7, 7]       [8, 2048, 7, 7]      (1,048,576)          False
│    │    └─BatchNorm2d (bn3)            [8, 2048, 7, 7]      [8, 2048, 7, 7]      (4,096)              False
│    │    └─Sequential (downsample)      [8, 1024, 14, 14]    [8, 2048, 7, 7]      (2,101,248)          False
│    │    └─ReLU (relu)                  [8, 2048, 7, 7]      [8, 2048, 7, 7]      --                   --
│    └─Bottleneck (1)                    [8, 2048, 7, 7]      [8, 2048, 7, 7]      --                   False
│    │    └─Conv2d (conv1)               [8, 2048, 7, 7]      [8, 512, 7, 7]       (1,048,576)          False
│    │    └─BatchNorm2d (bn1)            [8, 512, 7, 7]       [8, 512, 7, 7]       (1,024)              False
│    │    └─ReLU (relu)                  [8, 512, 7, 7]       [8, 512, 7, 7]       --                   --
│    │    └─Conv2d (conv2)               [8, 512, 7, 7]       [8, 512, 7, 7]       (2,359,296)          False
│    │    └─BatchNorm2d (bn2)            [8, 512, 7, 7]       [8, 512, 7, 7]       (1,024)              False
│    │    └─ReLU (relu)                  [8, 512, 7, 7]       [8, 512, 7, 7]       --                   --
│    │    └─Conv2d (conv3)               [8, 512, 7, 7]       [8, 2048, 7, 7]      (1,048,576)          False
│    │    └─BatchNorm2d (bn3)            [8, 2048, 7, 7]      [8, 2048, 7, 7]      (4,096)              False
│    │    └─ReLU (relu)                  [8, 2048, 7, 7]      [8, 2048, 7, 7]      --                   --
│    └─Bottleneck (2)                    [8, 2048, 7, 7]      [8, 2048, 7, 7]      --                   False
│    │    └─Conv2d (conv1)               [8, 2048, 7, 7]      [8, 512, 7, 7]       (1,048,576)          False
│    │    └─BatchNorm2d (bn1)            [8, 512, 7, 7]       [8, 512, 7, 7]       (1,024)              False
│    │    └─ReLU (relu)                  [8, 512, 7, 7]       [8, 512, 7, 7]       --                   --
│    │    └─Conv2d (conv2)               [8, 512, 7, 7]       [8, 512, 7, 7]       (2,359,296)          False
│    │    └─BatchNorm2d (bn2)            [8, 512, 7, 7]       [8, 512, 7, 7]       (1,024)              False
│    │    └─ReLU (relu)                  [8, 512, 7, 7]       [8, 512, 7, 7]       --                   --
│    │    └─Conv2d (conv3)               [8, 512, 7, 7]       [8, 2048, 7, 7]      (1,048,576)          False
│    │    └─BatchNorm2d (bn3)            [8, 2048, 7, 7]      [8, 2048, 7, 7]      (4,096)              False
│    │    └─ReLU (relu)                  [8, 2048, 7, 7]      [8, 2048, 7, 7]      --                   --
├─AdaptiveAvgPool2d (avgpool)            [8, 2048, 7, 7]      [8, 2048, 1, 1]      --                   --
├─Linear (fc)                            [8, 2048]            [8, 1000]            (2,049,000)          False
========================================================================================================================
Total params: 25,557,032
Trainable params: 0
Non-trainable params: 25,557,032
Total mult-adds (Units.GIGABYTES): 32.71
========================================================================================================================
…
Forward/backward pass size (MB): 1422.65
Params size (MB): 102.23
Estimated Total Size (MB): 1529.70
========================================================================================================================
========================================================================================================================
Layer (type (var_name))                  Input Shape          Output Shape         Param #              Trainable
========================================================================================================================
ResNet (ResNet)                          [8, 3, 224, 224]     [8, 8]               --                   Partial
├─Conv2d (conv1)                         [8, 3, 224, 224]     [8, 64, 112, 112]    (9,408)              False
├─BatchNorm2d (bn1)                      [8, 64, 112, 112]    [8, 64, 112, 112]    (128)                False
├─ReLU (relu)                            [8, 64, 112, 112]    [8, 64, 112, 112]    --                   --
├─MaxPool2d (maxpool)                    [8, 64, 112, 112]    [8, 64, 56, 56]      --                   --
├─Sequential (layer1)                    [8, 64, 56, 56]      [8, 256, 56, 56]     --                   False
│    └─Bottleneck (0)                    [8, 64, 56, 56]      [8, 256, 56, 56]     --                   False
│    │    └─Conv2d (conv1)               [8, 64, 56, 56]      [8, 64, 56, 56]      (4,096)              False
│    │    └─BatchNorm2d (bn1)            [8, 64, 56, 56]      [8, 64, 56, 56]      (128)                False
│    │    └─ReLU (relu)                  [8, 64, 56, 56]      [8, 64, 56, 56]      --                   --
│    │    └─Conv2d (conv2)               [8, 64, 56, 56]      [8, 64, 56, 56]      (36,864)             False
│    │    └─BatchNorm2d (bn2)            [8, 64, 56, 56]      [8, 64, 56, 56]      (128)                False
│    │    └─ReLU (relu)                  [8, 64, 56, 56]      [8, 64, 56, 56]      --                   --
│    │    └─Conv2d (conv3)               [8, 64, 56, 56]      [8, 256, 56, 56]     (16,384)             False
│    │    └─BatchNorm2d (bn3)            [8, 256, 56, 56]     [8, 256, 56, 56]     (512)                False
│    │    └─Sequential (downsample)      [8, 64, 56, 56]      [8, 256, 56, 56]     (16,896)             False
│    │    └─ReLU (relu)                  [8, 256, 56, 56]     [8, 256, 56, 56]     --                   --
│    └─Bottleneck (1)                    [8, 256, 56, 56]     [8, 256, 56, 56]     --                   False
│    │    └─Conv2d (conv1)               [8, 256, 56, 56]     [8, 64, 56, 56]      (16,384)             False
│    │    └─BatchNorm2d (bn1)            [8, 64, 56, 56]      [8, 64, 56, 56]      (128)                False
│    │    └─ReLU (relu)                  [8, 64, 56, 56]      [8, 64, 56, 56]      --                   --
│    │    └─Conv2d (conv2)               [8, 64, 56, 56]      [8, 64, 56, 56]      (36,864)             False
│    │    └─BatchNorm2d (bn2)            [8, 64, 56, 56]      [8, 64, 56, 56]      (128)                False
│    │    └─ReLU (relu)                  [8, 64, 56, 56]      [8, 64, 56, 56]      --                   --
│    │    └─Conv2d (conv3)               [8, 64, 56, 56]      [8, 256, 56, 56]     (16,384)             False
│    │    └─BatchNorm2d (bn3)            [8, 256, 56, 56]     [8, 256, 56, 56]     (512)                False
│    │    └─ReLU (relu)                  [8, 256, 56, 56]     [8, 256, 56, 56]     --                   --
│    └─Bottleneck (2)                    [8, 256, 56, 56]     [8, 256, 56, 56]     --                   False
│    │    └─Conv2d (conv1)               [8, 256, 56, 56]     [8, 64, 56, 56]      (16,384)             False
│    │    └─BatchNorm2d (bn1)            [8, 64, 56, 56]      [8, 64, 56, 56]      (128)                False
│    │    └─ReLU (relu)                  [8, 64, 56, 56]      [8, 64, 56, 56]      --                   --
│    │    └─Conv2d (conv2)               [8, 64, 56, 56]      [8, 64, 56, 56]      (36,864)             False
│    │    └─BatchNorm2d (bn2)            [8, 64, 56, 56]      [8, 64, 56, 56]      (128)                False
│    │    └─ReLU (relu)                  [8, 64, 56, 56]      [8, 64, 56, 56]      --                   --
│    │    └─Conv2d (conv3)               [8, 64, 56, 56]      [8, 256, 56, 56]     (16,384)             False
│    │    └─BatchNorm2d (bn3)            [8, 256, 56, 56]     [8, 256, 56, 56]     (512)                False
│    │    └─ReLU (relu)                  [8, 256, 56, 56]     [8, 256, 56, 56]     --                   --
├─Sequential (layer2)                    [8, 256, 56, 56]     [8, 512, 28, 28]     --                   False
│    └─Bottleneck (0)                    [8, 256, 56, 56]     [8, 512, 28, 28]     --                   False
│    │    └─Conv2d (conv1)               [8, 256, 56, 56]     [8, 128, 56, 56]     (32,768)             False
│    │    └─BatchNorm2d (bn1)            [8, 128, 56, 56]     [8, 128, 56, 56]     (256)                False
│    │    └─ReLU (relu)                  [8, 128, 56, 56]     [8, 128, 56, 56]     --                   --
│    │    └─Conv2d (conv2)               [8, 128, 56, 56]     [8, 128, 28, 28]     (147,456)            False
│    │    └─BatchNorm2d (bn2)            [8, 128, 28, 28]     [8, 128, 28, 28]     (256)                False
│    │    └─ReLU (relu)                  [8, 128, 28, 28]     [8, 128, 28, 28]     --                   --
│    │    └─Conv2d (conv3)               [8, 128, 28, 28]     [8, 512, 28, 28]     (65,536)             False
│    │    └─BatchNorm2d (bn3)            [8, 512, 28, 28]     [8, 512, 28, 28]     (1,024)              False
│    │    └─Sequential (downsample)      [8, 256, 56, 56]     [8, 512, 28, 28]     (132,096)            False
│    │    └─ReLU (relu)                  [8, 512, 28, 28]     [8, 512, 28, 28]     --                   --
│    └─Bottleneck (1)                    [8, 512, 28, 28]     [8, 512, 28, 28]     --                   False
│    │    └─Conv2d (conv1)               [8, 512, 28, 28]     [8, 128, 28, 28]     (65,536)             False
│    │    └─BatchNorm2d (bn1)            [8, 128, 28, 28]     [8, 128, 28, 28]     (256)                False
│    │    └─ReLU (relu)                  [8, 128, 28, 28]     [8, 128, 28, 28]     --                   --
│    │    └─Conv2d (conv2)               [8, 128, 28, 28]     [8, 128, 28, 28]     (147,456)            False
│    │    └─BatchNorm2d (bn2)            [8, 128, 28, 28]     [8, 128, 28, 28]     (256)                False
│    │    └─ReLU (relu)                  [8, 128, 28, 28]     [8, 128, 28, 28]     --                   --
│    │    └─Conv2d (conv3)               [8, 128, 28, 28]     [8, 512, 28, 28]     (65,536)             False
│    │    └─BatchNorm2d (bn3)            [8, 512, 28, 28]     [8, 512, 28, 28]     (1,024)              False
│    │    └─ReLU (relu)                  [8, 512, 28, 28]     [8, 512, 28, 28]     --                   --
│    └─Bottleneck (2)                    [8, 512, 28, 28]     [8, 512, 28, 28]     --                   False
│    │    └─Conv2d (conv1)               [8, 512, 28, 28]     [8, 128, 28, 28]     (65,536)             False
│    │    └─BatchNorm2d (bn1)            [8, 128, 28, 28]     [8, 128, 28, 28]     (256)                False
│    │    └─ReLU (relu)                  [8, 128, 28, 28]     [8, 128, 28, 28]     --                   --
│    │    └─Conv2d (conv2)               [8, 128, 28, 28]     [8, 128, 28, 28]     (147,456)            False
│    │    └─BatchNorm2d (bn2)            [8, 128, 28, 28]     [8, 128, 28, 28]     (256)                False
│    │    └─ReLU (relu)                  [8, 128, 28, 28]     [8, 128, 28, 28]     --                   --
│    │    └─Conv2d (conv3)               [8, 128, 28, 28]     [8, 512, 28, 28]     (65,536)             False
│    │    └─BatchNorm2d (bn3)            [8, 512, 28, 28]     [8, 512, 28, 28]     (1,024)              False
│    │    └─ReLU (relu)                  [8, 512, 28, 28]     [8, 512, 28, 28]     --                   --
│    └─Bottleneck (3)                    [8, 512, 28, 28]     [8, 512, 28, 28]     --                   False
│    │    └─Conv2d (conv1)               [8, 512, 28, 28]     [8, 128, 28, 28]     (65,536)             False
│    │    └─BatchNorm2d (bn1)            [8, 128, 28, 28]     [8, 128, 28, 28]     (256)                False
│    │    └─ReLU (relu)                  [8, 128, 28, 28]     [8, 128, 28, 28]     --                   --
│    │    └─Conv2d (conv2)               [8, 128, 28, 28]     [8, 128, 28, 28]     (147,456)            False
│    │    └─BatchNorm2d (bn2)            [8, 128, 28, 28]     [8, 128, 28, 28]     (256)                False
│    │    └─ReLU (relu)                  [8, 128, 28, 28]     [8, 128, 28, 28]     --                   --
│    │    └─Conv2d (conv3)               [8, 128, 28, 28]     [8, 512, 28, 28]     (65,536)             False
│    │    └─BatchNorm2d (bn3)            [8, 512, 28, 28]     [8, 512, 28, 28]     (1,024)              False
│    │    └─ReLU (relu)                  [8, 512, 28, 28]     [8, 512, 28, 28]     --                   --
├─Sequential (layer3)                    [8, 512, 28, 28]     [8, 1024, 14, 14]    --                   False
│    └─Bottleneck (0)                    [8, 512, 28, 28]     [8, 1024, 14, 14]    --                   False
│    │    └─Conv2d (conv1)               [8, 512, 28, 28]     [8, 256, 28, 28]     (131,072)            False
│    │    └─BatchNorm2d (bn1)            [8, 256, 28, 28]     [8, 256, 28, 28]     (512)                False
│    │    └─ReLU (relu)                  [8, 256, 28, 28]     [8, 256, 28, 28]     --                   --
│    │    └─Conv2d (conv2)               [8, 256, 28, 28]     [8, 256, 14, 14]     (589,824)            False
│    │    └─BatchNorm2d (bn2)            [8, 256, 14, 14]     [8, 256, 14, 14]     (512)                False
│    │    └─ReLU (relu)                  [8, 256, 14, 14]     [8, 256, 14, 14]     --                   --
│    │    └─Conv2d (conv3)               [8, 256, 14, 14]     [8, 1024, 14, 14]    (262,144)            False
│    │    └─BatchNorm2d (bn3)            [8, 1024, 14, 14]    [8, 1024, 14, 14]    (2,048)              False
│    │    └─Sequential (downsample)      [8, 512, 28, 28]     [8, 1024, 14, 14]    (526,336)            False
│    │    └─ReLU (relu)                  [8, 1024, 14, 14]    [8, 1024, 14, 14]    --                   --
│    └─Bottleneck (1)                    [8, 1024, 14, 14]    [8, 1024, 14, 14]    --                   False
│    │    └─Conv2d (conv1)               [8, 1024, 14, 14]    [8, 256, 14, 14]     (262,144)            False
│    │    └─BatchNorm2d (bn1)            [8, 256, 14, 14]     [8, 256, 14, 14]     (512)                False
│    │    └─ReLU (relu)                  [8, 256, 14, 14]     [8, 256, 14, 14]     --                   --
│    │    └─Conv2d (conv2)               [8, 256, 14, 14]     [8, 256, 14, 14]     (589,824)            False
│    │    └─BatchNorm2d (bn2)            [8, 256, 14, 14]     [8, 256, 14, 14]     (512)                False
│    │    └─ReLU (relu)                  [8, 256, 14, 14]     [8, 256, 14, 14]     --                   --
│    │    └─Conv2d (conv3)               [8, 256, 14, 14]     [8, 1024, 14, 14]    (262,144)            False
│    │    └─BatchNorm2d (bn3)            [8, 1024, 14, 14]    [8, 1024, 14, 14]    (2,048)              False
│    │    └─ReLU (relu)                  [8, 1024, 14, 14]    [8, 1024, 14, 14]    --                   --
│    └─Bottleneck (2)                    [8, 1024, 14, 14]    [8, 1024, 14, 14]    --                   False
│    │    └─Conv2d (conv1)               [8, 1024, 14, 14]    [8, 256, 14, 14]     (262,144)            False
│    │    └─BatchNorm2d (bn1)            [8, 256, 14, 14]     [8, 256, 14, 14]     (512)                False
│    │    └─ReLU (relu)                  [8, 256, 14, 14]     [8, 256, 14, 14]     --                   --
│    │    └─Conv2d (conv2)               [8, 256, 14, 14]     [8, 256, 14, 14]     (589,824)            False
│    │    └─BatchNorm2d (bn2)            [8, 256, 14, 14]     [8, 256, 14, 14]     (512)                False
│    │    └─ReLU (relu)                  [8, 256, 14, 14]     [8, 256, 14, 14]     --                   --
│    │    └─Conv2d (conv3)               [8, 256, 14, 14]     [8, 1024, 14, 14]    (262,144)            False
│    │    └─BatchNorm2d (bn3)            [8, 1024, 14, 14]    [8, 1024, 14, 14]    (2,048)              False
│    │    └─ReLU (relu)                  [8, 1024, 14, 14]    [8, 1024, 14, 14]    --                   --
│    └─Bottleneck (3)                    [8, 1024, 14, 14]    [8, 1024, 14, 14]    --                   False
│    │    └─Conv2d (conv1)               [8, 1024, 14, 14]    [8, 256, 14, 14]     (262,144)            False
│    │    └─BatchNorm2d (bn1)            [8, 256, 14, 14]     [8, 256, 14, 14]     (512)                False
│    │    └─ReLU (relu)                  [8, 256, 14, 14]     [8, 256, 14, 14]     --                   --
│    │    └─Conv2d (conv2)               [8, 256, 14, 14]     [8, 256, 14, 14]     (589,824)            False
│    │    └─BatchNorm2d (bn2)            [8, 256, 14, 14]     [8, 256, 14, 14]     (512)                False
│    │    └─ReLU (relu)                  [8, 256, 14, 14]     [8, 256, 14, 14]     --                   --
│    │    └─Conv2d (conv3)               [8, 256, 14, 14]     [8, 1024, 14, 14]    (262,144)            False
│    │    └─BatchNorm2d (bn3)            [8, 1024, 14, 14]    [8, 1024, 14, 14]    (2,048)              False
│    │    └─ReLU (relu)                  [8, 1024, 14, 14]    [8, 1024, 14, 14]    --                   --
│    └─Bottleneck (4)                    [8, 1024, 14, 14]    [8, 1024, 14, 14]    --                   False
│    │    └─Conv2d (conv1)               [8, 1024, 14, 14]    [8, 256, 14, 14]     (262,144)            False
│    │    └─BatchNorm2d (bn1)            [8, 256, 14, 14]     [8, 256, 14, 14]     (512)                False
│    │    └─ReLU (relu)                  [8, 256, 14, 14]     [8, 256, 14, 14]     --                   --
│    │    └─Conv2d (conv2)               [8, 256, 14, 14]     [8, 256, 14, 14]     (589,824)            False
│    │    └─BatchNorm2d (bn2)            [8, 256, 14, 14]     [8, 256, 14, 14]     (512)                False
│    │    └─ReLU (relu)                  [8, 256, 14, 14]     [8, 256, 14, 14]     --                   --
│    │    └─Conv2d (conv3)               [8, 256, 14, 14]     [8, 1024, 14, 14]    (262,144)            False
│    │    └─BatchNorm2d (bn3)            [8, 1024, 14, 14]    [8, 1024, 14, 14]    (2,048)              False
│    │    └─ReLU (relu)                  [8, 1024, 14, 14]    [8, 1024, 14, 14]    --                   --
│    └─Bottleneck (5)                    [8, 1024, 14, 14]    [8, 1024, 14, 14]    --                   False
│    │    └─Conv2d (conv1)               [8, 1024, 14, 14]    [8, 256, 14, 14]     (262,144)            False
│    │    └─BatchNorm2d (bn1)            [8, 256, 14, 14]     [8, 256, 14, 14]     (512)                False
│    │    └─ReLU (relu)                  [8, 256, 14, 14]     [8, 256, 14, 14]     --                   --
│    │    └─Conv2d (conv2)               [8, 256, 14, 14]     [8, 256, 14, 14]     (589,824)            False
│    │    └─BatchNorm2d (bn2)            [8, 256, 14, 14]     [8, 256, 14, 14]     (512)                False
│    │    └─ReLU (relu)                  [8, 256, 14, 14]     [8, 256, 14, 14]     --                   --
│    │    └─Conv2d (conv3)               [8, 256, 14, 14]     [8, 1024, 14, 14]    (262,144)            False
│    │    └─BatchNorm2d (bn3)            [8, 1024, 14, 14]    [8, 1024, 14, 14]    (2,048)              False
│    │    └─ReLU (relu)                  [8, 1024, 14, 14]    [8, 1024, 14, 14]    --                   --
├─Sequential (layer4)                    [8, 1024, 14, 14]    [8, 2048, 7, 7]      --                   False
│    └─Bottleneck (0)                    [8, 1024, 14, 14]    [8, 2048, 7, 7]      --                   False
│    │    └─Conv2d (conv1)               [8, 1024, 14, 14]    [8, 512, 14, 14]     (524,288)            False
│    │    └─BatchNorm2d (bn1)            [8, 512, 14, 14]     [8, 512, 14, 14]     (1,024)              False
│    │    └─ReLU (relu)                  [8, 512, 14, 14]     [8, 512, 14, 14]     --                   --
│    │    └─Conv2d (conv2)               [8, 512, 14, 14]     [8, 512, 7, 7]       (2,359,296)          False
│    │    └─BatchNorm2d (bn2)            [8, 512, 7, 7]       [8, 512, 7, 7]       (1,024)              False
│    │    └─ReLU (relu)                  [8, 512, 7, 7]       [8, 512, 7, 7]       --                   --
│    │    └─Conv2d (conv3)               [8, 512, 7, 7]       [8, 2048, 7, 7]      (1,048,576)          False
│    │    └─BatchNorm2d (bn3)            [8, 2048, 7, 7]      [8, 2048, 7, 7]      (4,096)              False
│    │    └─Sequential (downsample)      [8, 1024, 14, 14]    [8, 2048, 7, 7]      (2,101,248)          False
│    │    └─ReLU (relu)                  [8, 2048, 7, 7]      [8, 2048, 7, 7]      --                   --
│    └─Bottleneck (1)                    [8, 2048, 7, 7]      [8, 2048, 7, 7]      --                   False
│    │    └─Conv2d (conv1)               [8, 2048, 7, 7]      [8, 512, 7, 7]       (1,048,576)          False
│    │    └─BatchNorm2d (bn1)            [8, 512, 7, 7]       [8, 512, 7, 7]       (1,024)              False
│    │    └─ReLU (relu)                  [8, 512, 7, 7]       [8, 512, 7, 7]       --                   --
│    │    └─Conv2d (conv2)               [8, 512, 7, 7]       [8, 512, 7, 7]       (2,359,296)          False
│    │    └─BatchNorm2d (bn2)            [8, 512, 7, 7]       [8, 512, 7, 7]       (1,024)              False
│    │    └─ReLU (relu)                  [8, 512, 7, 7]       [8, 512, 7, 7]       --                   --
│    │    └─Conv2d (conv3)               [8, 512, 7, 7]       [8, 2048, 7, 7]      (1,048,576)          False
│    │    └─BatchNorm2d (bn3)            [8, 2048, 7, 7]      [8, 2048, 7, 7]      (4,096)              False
│    │    └─ReLU (relu)                  [8, 2048, 7, 7]      [8, 2048, 7, 7]      --                   --
│    └─Bottleneck (2)                    [8, 2048, 7, 7]      [8, 2048, 7, 7]      --                   False
│    │    └─Conv2d (conv1)               [8, 2048, 7, 7]      [8, 512, 7, 7]       (1,048,576)          False
│    │    └─BatchNorm2d (bn1)            [8, 512, 7, 7]       [8, 512, 7, 7]       (1,024)              False
│    │    └─ReLU (relu)                  [8, 512, 7, 7]       [8, 512, 7, 7]       --                   --
│    │    └─Conv2d (conv2)               [8, 512, 7, 7]       [8, 512, 7, 7]       (2,359,296)          False
│    │    └─BatchNorm2d (bn2)            [8, 512, 7, 7]       [8, 512, 7, 7]       (1,024)              False
│    │    └─ReLU (relu)                  [8, 512, 7, 7]       [8, 512, 7, 7]       --                   --
│    │    └─Conv2d (conv3)               [8, 512, 7, 7]       [8, 2048, 7, 7]      (1,048,576)          False
│    │    └─BatchNorm2d (bn3)            [8, 2048, 7, 7]      [8, 2048, 7, 7]      (4,096)              False
│    │    └─ReLU (relu)                  [8, 2048, 7, 7]      [8, 2048, 7, 7]      --                   --
├─AdaptiveAvgPool2d (avgpool)            [8, 2048, 7, 7]      [8, 2048, 1, 1]      --                   --
├─Sequential (fc)                        [8, 2048]            [8, 8]               --                   True
│    └─Linear (0)                        [8, 2048]            [8, 8]               16,392               True
========================================================================================================================
Total params: 23,524,424
Trainable params: 16,392
Non-trainable params: 23,508,032
Total mult-adds (Units.GIGABYTES): 32.70
========================================================================================================================
Input size (MB): 4.82
…
