Generating plots for: resnet50_finetuned
Path: ../best_models/finetune/resnet_checkpoint_21-0.23.pt
========================================================================================================================
Layer (type (var_name))                  Input Shape          Output Shape         Param #              Trainable
========================================================================================================================
ResNet (ResNet)                          [32, 3, 224, 224]    [32, 8]              --                   True
├─Conv2d (conv1)                         [32, 3, 224, 224]    [32, 64, 112, 112]   9,408                True
├─BatchNorm2d (bn1)                      [32, 64, 112, 112]   [32, 64, 112, 112]   128                  True
├─ReLU (relu)                            [32, 64, 112, 112]   [32, 64, 112, 112]   --                   --
├─MaxPool2d (maxpool)                    [32, 64, 112, 112]   [32, 64, 56, 56]     --                   --
├─Sequential (layer1)                    [32, 64, 56, 56]     [32, 256, 56, 56]    --                   True
│    └─Bottleneck (0)                    [32, 64, 56, 56]     [32, 256, 56, 56]    --                   True
│    │    └─Conv2d (conv1)               [32, 64, 56, 56]     [32, 64, 56, 56]     4,096                True
│    │    └─BatchNorm2d (bn1)            [32, 64, 56, 56]     [32, 64, 56, 56]     128                  True
│    │    └─ReLU (relu)                  [32, 64, 56, 56]     [32, 64, 56, 56]     --                   --
│    │    └─Conv2d (conv2)               [32, 64, 56, 56]     [32, 64, 56, 56]     36,864               True
│    │    └─BatchNorm2d (bn2)            [32, 64, 56, 56]     [32, 64, 56, 56]     128                  True
│    │    └─ReLU (relu)                  [32, 64, 56, 56]     [32, 64, 56, 56]     --                   --
│    │    └─Conv2d (conv3)               [32, 64, 56, 56]     [32, 256, 56, 56]    16,384               True
│    │    └─BatchNorm2d (bn3)            [32, 256, 56, 56]    [32, 256, 56, 56]    512                  True
│    │    └─Sequential (downsample)      [32, 64, 56, 56]     [32, 256, 56, 56]    16,896               True
│    │    └─ReLU (relu)                  [32, 256, 56, 56]    [32, 256, 56, 56]    --                   --
│    └─Bottleneck (1)                    [32, 256, 56, 56]    [32, 256, 56, 56]    --                   True
│    │    └─Conv2d (conv1)               [32, 256, 56, 56]    [32, 64, 56, 56]     16,384               True
│    │    └─BatchNorm2d (bn1)            [32, 64, 56, 56]     [32, 64, 56, 56]     128                  True
│    │    └─ReLU (relu)                  [32, 64, 56, 56]     [32, 64, 56, 56]     --                   --
│    │    └─Conv2d (conv2)               [32, 64, 56, 56]     [32, 64, 56, 56]     36,864               True
│    │    └─BatchNorm2d (bn2)            [32, 64, 56, 56]     [32, 64, 56, 56]     128                  True
│    │    └─ReLU (relu)                  [32, 64, 56, 56]     [32, 64, 56, 56]     --                   --
│    │    └─Conv2d (conv3)               [32, 64, 56, 56]     [32, 256, 56, 56]    16,384               True
│    │    └─BatchNorm2d (bn3)            [32, 256, 56, 56]    [32, 256, 56, 56]    512                  True
│    │    └─ReLU (relu)                  [32, 256, 56, 56]    [32, 256, 56, 56]    --                   --
│    └─Bottleneck (2)                    [32, 256, 56, 56]    [32, 256, 56, 56]    --                   True
│    │    └─Conv2d (conv1)               [32, 256, 56, 56]    [32, 64, 56, 56]     16,384               True
│    │    └─BatchNorm2d (bn1)            [32, 64, 56, 56]     [32, 64, 56, 56]     128                  True
│    │    └─ReLU (relu)                  [32, 64, 56, 56]     [32, 64, 56, 56]     --                   --
│    │    └─Conv2d (conv2)               [32, 64, 56, 56]     [32, 64, 56, 56]     36,864               True
│    │    └─BatchNorm2d (bn2)            [32, 64, 56, 56]     [32, 64, 56, 56]     128                  True
│    │    └─ReLU (relu)                  [32, 64, 56, 56]     [32, 64, 56, 56]     --                   --
│    │    └─Conv2d (conv3)               [32, 64, 56, 56]     [32, 256, 56, 56]    16,384               True
│    │    └─BatchNorm2d (bn3)            [32, 256, 56, 56]    [32, 256, 56, 56]    512                  True
│    │    └─ReLU (relu)                  [32, 256, 56, 56]    [32, 256, 56, 56]    --                   --
├─Sequential (layer2)                    [32, 256, 56, 56]    [32, 512, 28, 28]    --                   True
│    └─Bottleneck (0)                    [32, 256, 56, 56]    [32, 512, 28, 28]    --                   True
│    │    └─Conv2d (conv1)               [32, 256, 56, 56]    [32, 128, 56, 56]    32,768               True
│    │    └─BatchNorm2d (bn1)            [32, 128, 56, 56]    [32, 128, 56, 56]    256                  True
│    │    └─ReLU (relu)                  [32, 128, 56, 56]    [32, 128, 56, 56]    --                   --
│    │    └─Conv2d (conv2)               [32, 128, 56, 56]    [32, 128, 28, 28]    147,456              True
│    │    └─BatchNorm2d (bn2)            [32, 128, 28, 28]    [32, 128, 28, 28]    256                  True
│    │    └─ReLU (relu)                  [32, 128, 28, 28]    [32, 128, 28, 28]    --                   --
│    │    └─Conv2d (conv3)               [32, 128, 28, 28]    [32, 512, 28, 28]    65,536               True
│    │    └─BatchNorm2d (bn3)            [32, 512, 28, 28]    [32, 512, 28, 28]    1,024                True
│    │    └─Sequential (downsample)      [32, 256, 56, 56]    [32, 512, 28, 28]    132,096              True
│    │    └─ReLU (relu)                  [32, 512, 28, 28]    [32, 512, 28, 28]    --                   --
│    └─Bottleneck (1)                    [32, 512, 28, 28]    [32, 512, 28, 28]    --                   True
│    │    └─Conv2d (conv1)               [32, 512, 28, 28]    [32, 128, 28, 28]    65,536               True
│    │    └─BatchNorm2d (bn1)            [32, 128, 28, 28]    [32, 128, 28, 28]    256                  True
│    │    └─ReLU (relu)                  [32, 128, 28, 28]    [32, 128, 28, 28]    --                   --
│    │    └─Conv2d (conv2)               [32, 128, 28, 28]    [32, 128, 28, 28]    147,456              True
│    │    └─BatchNorm2d (bn2)            [32, 128, 28, 28]    [32, 128, 28, 28]    256                  True
│    │    └─ReLU (relu)                  [32, 128, 28, 28]    [32, 128, 28, 28]    --                   --
│    │    └─Conv2d (conv3)               [32, 128, 28, 28]    [32, 512, 28, 28]    65,536               True
│    │    └─BatchNorm2d (bn3)            [32, 512, 28, 28]    [32, 512, 28, 28]    1,024                True
│    │    └─ReLU (relu)                  [32, 512, 28, 28]    [32, 512, 28, 28]    --                   --
│    └─Bottleneck (2)                    [32, 512, 28, 28]    [32, 512, 28, 28]    --                   True
│    │    └─Conv2d (conv1)               [32, 512, 28, 28]    [32, 128, 28, 28]    65,536               True
│    │    └─BatchNorm2d (bn1)            [32, 128, 28, 28]    [32, 128, 28, 28]    256                  True
│    │    └─ReLU (relu)                  [32, 128, 28, 28]    [32, 128, 28, 28]    --                   --
│    │    └─Conv2d (conv2)               [32, 128, 28, 28]    [32, 128, 28, 28]    147,456              True
│    │    └─BatchNorm2d (bn2)            [32, 128, 28, 28]    [32, 128, 28, 28]    256                  True
│    │    └─ReLU (relu)                  [32, 128, 28, 28]    [32, 128, 28, 28]    --                   --
│    │    └─Conv2d (conv3)               [32, 128, 28, 28]    [32, 512, 28, 28]    65,536               True
│    │    └─BatchNorm2d (bn3)            [32, 512, 28, 28]    [32, 512, 28, 28]    1,024                True
│    │    └─ReLU (relu)                  [32, 512, 28, 28]    [32, 512, 28, 28]    --                   --
│    └─Bottleneck (3)                    [32, 512, 28, 28]    [32, 512, 28, 28]    --                   True
│    │    └─Conv2d (conv1)               [32, 512, 28, 28]    [32, 128, 28, 28]    65,536               True
│    │    └─BatchNorm2d (bn1)            [32, 128, 28, 28]    [32, 128, 28, 28]    256                  True
│    │    └─ReLU (relu)                  [32, 128, 28, 28]    [32, 128, 28, 28]    --                   --
│    │    └─Conv2d (conv2)               [32, 128, 28, 28]    [32, 128, 28, 28]    147,456              True
│    │    └─BatchNorm2d (bn2)            [32, 128, 28, 28]    [32, 128, 28, 28]    256                  True
│    │    └─ReLU (relu)                  [32, 128, 28, 28]    [32, 128, 28, 28]    --                   --
│    │    └─Conv2d (conv3)               [32, 128, 28, 28]    [32, 512, 28, 28]    65,536               True
│    │    └─BatchNorm2d (bn3)            [32, 512, 28, 28]    [32, 512, 28, 28]    1,024                True
│    │    └─ReLU (relu)                  [32, 512, 28, 28]    [32, 512, 28, 28]    --                   --
├─Sequential (layer3)                    [32, 512, 28, 28]    [32, 1024, 14, 14]   --                   True
│    └─Bottleneck (0)                    [32, 512, 28, 28]    [32, 1024, 14, 14]   --                   True
│    │    └─Conv2d (conv1)               [32, 512, 28, 28]    [32, 256, 28, 28]    131,072              True
│    │    └─BatchNorm2d (bn1)            [32, 256, 28, 28]    [32, 256, 28, 28]    512                  True
│    │    └─ReLU (relu)                  [32, 256, 28, 28]    [32, 256, 28, 28]    --                   --
│    │    └─Conv2d (conv2)               [32, 256, 28, 28]    [32, 256, 14, 14]    589,824              True
│    │    └─BatchNorm2d (bn2)            [32, 256, 14, 14]    [32, 256, 14, 14]    512                  True
│    │    └─ReLU (relu)                  [32, 256, 14, 14]    [32, 256, 14, 14]    --                   --
│    │    └─Conv2d (conv3)               [32, 256, 14, 14]    [32, 1024, 14, 14]   262,144              True
│    │    └─BatchNorm2d (bn3)            [32, 1024, 14, 14]   [32, 1024, 14, 14]   2,048                True
│    │    └─Sequential (downsample)      [32, 512, 28, 28]    [32, 1024, 14, 14]   526,336              True
│    │    └─ReLU (relu)                  [32, 1024, 14, 14]   [32, 1024, 14, 14]   --                   --
│    └─Bottleneck (1)                    [32, 1024, 14, 14]   [32, 1024, 14, 14]   --                   True
│    │    └─Conv2d (conv1)               [32, 1024, 14, 14]   [32, 256, 14, 14]    262,144              True
│    │    └─BatchNorm2d (bn1)            [32, 256, 14, 14]    [32, 256, 14, 14]    512                  True
│    │    └─ReLU (relu)                  [32, 256, 14, 14]    [32, 256, 14, 14]    --                   --
│    │    └─Conv2d (conv2)               [32, 256, 14, 14]    [32, 256, 14, 14]    589,824              True
│    │    └─BatchNorm2d (bn2)            [32, 256, 14, 14]    [32, 256, 14, 14]    512                  True
│    │    └─ReLU (relu)                  [32, 256, 14, 14]    [32, 256, 14, 14]    --                   --
│    │    └─Conv2d (conv3)               [32, 256, 14, 14]    [32, 1024, 14, 14]   262,144              True
│    │    └─BatchNorm2d (bn3)            [32, 1024, 14, 14]   [32, 1024, 14, 14]   2,048                True
│    │    └─ReLU (relu)                  [32, 1024, 14, 14]   [32, 1024, 14, 14]   --                   --
│    └─Bottleneck (2)                    [32, 1024, 14, 14]   [32, 1024, 14, 14]   --                   True
│    │    └─Conv2d (conv1)               [32, 1024, 14, 14]   [32, 256, 14, 14]    262,144              True
│    │    └─BatchNorm2d (bn1)            [32, 256, 14, 14]    [32, 256, 14, 14]    512                  True
│    │    └─ReLU (relu)                  [32, 256, 14, 14]    [32, 256, 14, 14]    --                   --
│    │    └─Conv2d (conv2)               [32, 256, 14, 14]    [32, 256, 14, 14]    589,824              True
│    │    └─BatchNorm2d (bn2)            [32, 256, 14, 14]    [32, 256, 14, 14]    512                  True
│    │    └─ReLU (relu)                  [32, 256, 14, 14]    [32, 256, 14, 14]    --                   --
│    │    └─Conv2d (conv3)               [32, 256, 14, 14]    [32, 1024, 14, 14]   262,144              True
│    │    └─BatchNorm2d (bn3)            [32, 1024, 14, 14]   [32, 1024, 14, 14]   2,048                True
│    │    └─ReLU (relu)                  [32, 1024, 14, 14]   [32, 1024, 14, 14]   --                   --
│    └─Bottleneck (3)                    [32, 1024, 14, 14]   [32, 1024, 14, 14]   --                   True
│    │    └─Conv2d (conv1)               [32, 1024, 14, 14]   [32, 256, 14, 14]    262,144              True
│    │    └─BatchNorm2d (bn1)            [32, 256, 14, 14]    [32, 256, 14, 14]    512                  True
│    │    └─ReLU (relu)                  [32, 256, 14, 14]    [32, 256, 14, 14]    --                   --
│    │    └─Conv2d (conv2)               [32, 256, 14, 14]    [32, 256, 14, 14]    589,824              True
│    │    └─BatchNorm2d (bn2)            [32, 256, 14, 14]    [32, 256, 14, 14]    512                  True
│    │    └─ReLU (relu)                  [32, 256, 14, 14]    [32, 256, 14, 14]    --                   --
│    │    └─Conv2d (conv3)               [32, 256, 14, 14]    [32, 1024, 14, 14]   262,144              True
│    │    └─BatchNorm2d (bn3)            [32, 1024, 14, 14]   [32, 1024, 14, 14]   2,048                True
│    │    └─ReLU (relu)                  [32, 1024, 14, 14]   [32, 1024, 14, 14]   --                   --
│    └─Bottleneck (4)                    [32, 1024, 14, 14]   [32, 1024, 14, 14]   --                   True
│    │    └─Conv2d (conv1)               [32, 1024, 14, 14]   [32, 256, 14, 14]    262,144              True
│    │    └─BatchNorm2d (bn1)            [32, 256, 14, 14]    [32, 256, 14, 14]    512                  True
│    │    └─ReLU (relu)                  [32, 256, 14, 14]    [32, 256, 14, 14]    --                   --
│    │    └─Conv2d (conv2)               [32, 256, 14, 14]    [32, 256, 14, 14]    589,824              True
│    │    └─BatchNorm2d (bn2)            [32, 256, 14, 14]    [32, 256, 14, 14]    512                  True
│    │    └─ReLU (relu)                  [32, 256, 14, 14]    [32, 256, 14, 14]    --                   --
│    │    └─Conv2d (conv3)               [32, 256, 14, 14]    [32, 1024, 14, 14]   262,144              True
│    │    └─BatchNorm2d (bn3)            [32, 1024, 14, 14]   [32, 1024, 14, 14]   2,048                True
│    │    └─ReLU (relu)                  [32, 1024, 14, 14]   [32, 1024, 14, 14]   --                   --
│    └─Bottleneck (5)                    [32, 1024, 14, 14]   [32, 1024, 14, 14]   --                   True
│    │    └─Conv2d (conv1)               [32, 1024, 14, 14]   [32, 256, 14, 14]    262,144              True
│    │    └─BatchNorm2d (bn1)            [32, 256, 14, 14]    [32, 256, 14, 14]    512                  True
│    │    └─ReLU (relu)                  [32, 256, 14, 14]    [32, 256, 14, 14]    --                   --
│    │    └─Conv2d (conv2)               [32, 256, 14, 14]    [32, 256, 14, 14]    589,824              True
│    │    └─BatchNorm2d (bn2)            [32, 256, 14, 14]    [32, 256, 14, 14]    512                  True
│    │    └─ReLU (relu)                  [32, 256, 14, 14]    [32, 256, 14, 14]    --                   --
│    │    └─Conv2d (conv3)               [32, 256, 14, 14]    [32, 1024, 14, 14]   262,144              True
│    │    └─BatchNorm2d (bn3)            [32, 1024, 14, 14]   [32, 1024, 14, 14]   2,048                True
│    │    └─ReLU (relu)                  [32, 1024, 14, 14]   [32, 1024, 14, 14]   --                   --
├─Sequential (layer4)                    [32, 1024, 14, 14]   [32, 2048, 7, 7]     --                   True
│    └─Bottleneck (0)                    [32, 1024, 14, 14]   [32, 2048, 7, 7]     --                   True
│    │    └─Conv2d (conv1)               [32, 1024, 14, 14]   [32, 512, 14, 14]    524,288              True
│    │    └─BatchNorm2d (bn1)            [32, 512, 14, 14]    [32, 512, 14, 14]    1,024                True
│    │    └─ReLU (relu)                  [32, 512, 14, 14]    [32, 512, 14, 14]    --                   --
│    │    └─Conv2d (conv2)               [32, 512, 14, 14]    [32, 512, 7, 7]      2,359,296            True
│    │    └─BatchNorm2d (bn2)            [32, 512, 7, 7]      [32, 512, 7, 7]      1,024                True
│    │    └─ReLU (relu)                  [32, 512, 7, 7]      [32, 512, 7, 7]      --                   --
│    │    └─Conv2d (conv3)               [32, 512, 7, 7]      [32, 2048, 7, 7]     1,048,576            True
│    │    └─BatchNorm2d (bn3)            [32, 2048, 7, 7]     [32, 2048, 7, 7]     4,096                True
│    │    └─Sequential (downsample)      [32, 1024, 14, 14]   [32, 2048, 7, 7]     2,101,248            True
│    │    └─ReLU (relu)                  [32, 2048, 7, 7]     [32, 2048, 7, 7]     --                   --
│    └─Bottleneck (1)                    [32, 2048, 7, 7]     [32, 2048, 7, 7]     --                   True
│    │    └─Conv2d (conv1)               [32, 2048, 7, 7]     [32, 512, 7, 7]      1,048,576            True
│    │    └─BatchNorm2d (bn1)            [32, 512, 7, 7]      [32, 512, 7, 7]      1,024                True
│    │    └─ReLU (relu)                  [32, 512, 7, 7]      [32, 512, 7, 7]      --                   --
│    │    └─Conv2d (conv2)               [32, 512, 7, 7]      [32, 512, 7, 7]      2,359,296            True
│    │    └─BatchNorm2d (bn2)            [32, 512, 7, 7]      [32, 512, 7, 7]      1,024                True
│    │    └─ReLU (relu)                  [32, 512, 7, 7]      [32, 512, 7, 7]      --                   --
│    │    └─Conv2d (conv3)               [32, 512, 7, 7]      [32, 2048, 7, 7]     1,048,576            True
│    │    └─BatchNorm2d (bn3)            [32, 2048, 7, 7]     [32, 2048, 7, 7]     4,096                True
│    │    └─ReLU (relu)                  [32, 2048, 7, 7]     [32, 2048, 7, 7]     --                   --
│    └─Bottleneck (2)                    [32, 2048, 7, 7]     [32, 2048, 7, 7]     --                   True
│    │    └─Conv2d (conv1)               [32, 2048, 7, 7]     [32, 512, 7, 7]      1,048,576            True
│    │    └─BatchNorm2d (bn1)            [32, 512, 7, 7]      [32, 512, 7, 7]      1,024                True
│    │    └─ReLU (relu)                  [32, 512, 7, 7]      [32, 512, 7, 7]      --                   --
│    │    └─Conv2d (conv2)               [32, 512, 7, 7]      [32, 512, 7, 7]      2,359,296            True
│    │    └─BatchNorm2d (bn2)            [32, 512, 7, 7]      [32, 512, 7, 7]      1,024                True
│    │    └─ReLU (relu)                  [32, 512, 7, 7]      [32, 512, 7, 7]      --                   --
│    │    └─Conv2d (conv3)               [32, 512, 7, 7]      [32, 2048, 7, 7]     1,048,576            True
│    │    └─BatchNorm2d (bn3)            [32, 2048, 7, 7]     [32, 2048, 7, 7]     4,096                True
│    │    └─ReLU (relu)                  [32, 2048, 7, 7]     [32, 2048, 7, 7]     --                   --
├─AdaptiveAvgPool2d (avgpool)            [32, 2048, 7, 7]     [32, 2048, 1, 1]     --                   --
├─Sequential (fc)                        [32, 2048]           [32, 8]              --                   True
│    └─Linear (0)                        [32, 2048]           [32, 8]              16,392               True
========================================================================================================================
Total params: 23,524,424
Trainable params: 23,524,424
Non-trainable params: 0
Total mult-adds (Units.GIGABYTES): 130.79
========================================================================================================================
Input size (MB): 19.27
…
