…
/home/alexander.huang/.conda/envs/torch/lib/python3.11/site-packages/torchvision/models/_utils.py:223: UserWarning: Arguments other than a weight enum or `None` for 'weights' are deprecated since 0.13 and may be removed in the future. The current behavior is equivalent to passing `weights=VGG16_Weights.IMAGENET1K_V1`. You can also use `weights=VGG16_Weights.DEFAULT` to get the most up-to-date weights.
  warnings.warn(msg)
Creating fixed-feature model: vgg16
1000
========================================================================================================================
Layer (type (var_name))                  Input Shape          Output Shape         Param #              Trainable
========================================================================================================================
VGG (VGG)                                [32, 3, 224, 224]    [32, 8]              --                   True
├─Sequential (features)                  [32, 3, 224, 224]    [32, 512, 7, 7]      --                   True
│    └─Conv2d (0)                        [32, 3, 224, 224]    [32, 64, 224, 224]   1,792                True
│    └─ReLU (1)                          [32, 64, 224, 224]   [32, 64, 224, 224]   --                   --
│    └─Conv2d (2)                        [32, 64, 224, 224]   [32, 64, 224, 224]   36,928               True
│    └─ReLU (3)                          [32, 64, 224, 224]   [32, 64, 224, 224]   --                   --
│    └─MaxPool2d (4)                     [32, 64, 224, 224]   [32, 64, 112, 112]   --                   --
│    └─Conv2d (5)                        [32, 64, 112, 112]   [32, 128, 112, 112]  73,856               True
│    └─ReLU (6)                          [32, 128, 112, 112]  [32, 128, 112, 112]  --                   --
│    └─Conv2d (7)                        [32, 128, 112, 112]  [32, 128, 112, 112]  147,584              True
│    └─ReLU (8)                          [32, 128, 112, 112]  [32, 128, 112, 112]  --                   --
│    └─MaxPool2d (9)                     [32, 128, 112, 112]  [32, 128, 56, 56]    --                   --
│    └─Conv2d (10)                       [32, 128, 56, 56]    [32, 256, 56, 56]    295,168              True
│    └─ReLU (11)                         [32, 256, 56, 56]    [32, 256, 56, 56]    --                   --
│    └─Conv2d (12)                       [32, 256, 56, 56]    [32, 256, 56, 56]    590,080              True
│    └─ReLU (13)                         [32, 256, 56, 56]    [32, 256, 56, 56]    --                   --
│    └─Conv2d (14)                       [32, 256, 56, 56]    [32, 256, 56, 56]    590,080              True
│    └─ReLU (15)                         [32, 256, 56, 56]    [32, 256, 56, 56]    --                   --
│    └─MaxPool2d (16)                    [32, 256, 56, 56]    [32, 256, 28, 28]    --                   --
│    └─Conv2d (17)                       [32, 256, 28, 28]    [32, 512, 28, 28]    1,180,160            True
│    └─ReLU (18)                         [32, 512, 28, 28]    [32, 512, 28, 28]    --                   --
│    └─Conv2d (19)                       [32, 512, 28, 28]    [32, 512, 28, 28]    2,359,808            True
│    └─ReLU (20)                         [32, 512, 28, 28]    [32, 512, 28, 28]    --                   --
│    └─Conv2d (21)                       [32, 512, 28, 28]    [32, 512, 28, 28]    2,359,808            True
│    └─ReLU (22)                         [32, 512, 28, 28]    [32, 512, 28, 28]    --                   --
│    └─MaxPool2d (23)                    [32, 512, 28, 28]    [32, 512, 14, 14]    --                   --
│    └─Conv2d (24)                       [32, 512, 14, 14]    [32, 512, 14, 14]    2,359,808            True
│    └─ReLU (25)                         [32, 512, 14, 14]    [32, 512, 14, 14]    --                   --
│    └─Conv2d (26)                       [32, 512, 14, 14]    [32, 512, 14, 14]    2,359,808            True
│    └─ReLU (27)                         [32, 512, 14, 14]    [32, 512, 14, 14]    --                   --
│    └─Conv2d (28)                       [32, 512, 14, 14]    [32, 512, 14, 14]    2,359,808            True
│    └─ReLU (29)                         [32, 512, 14, 14]    [32, 512, 14, 14]    --                   --
│    └─MaxPool2d (30)                    [32, 512, 14, 14]    [32, 512, 7, 7]      --                   --
├─AdaptiveAvgPool2d (avgpool)            [32, 512, 7, 7]      [32, 512, 7, 7]      --                   --
├─Sequential (classifier)                [32, 25088]          [32, 8]              --                   True
│    └─Linear (0)                        [32, 25088]          [32, 4096]           102,764,544          True
│    └─ReLU (1)                          [32, 4096]           [32, 4096]           --                   --
│    └─Dropout (2)                       [32, 4096]           [32, 4096]           --                   --
│    └─Linear (3)                        [32, 4096]           [32, 4096]           16,781,312           True
│    └─ReLU (4)                          [32, 4096]           [32, 4096]           --                   --
│    └─Dropout (5)                       [32, 4096]           [32, 4096]           --                   --
│    └─Linear (6)                        [32, 4096]           [32, 8]              32,776               True
========================================================================================================================
Total params: 134,293,320
Trainable params: 134,293,320
Non-trainable params: 0
Total mult-adds (Units.GIGABYTES): 495.35
========================================================================================================================
Input size (MB): 19.27
…
