…
u can also use `weights=VGG16_Weights.DEFAULT` to get the most up-to-date weights.
  warnings.warn(msg)
Creating fixed-feature model: vgg16
Creating fixed-feature VGG16 model
========================================================================================================================
Layer (type (var_name))                  Input Shape          Output Shape         Param #              Trainable
========================================================================================================================
VGG (VGG)                                [8, 3, 224, 224]     [8, 8]               --                   Partial
├─Sequential (features)                  [8, 3, 224, 224]     [8, 512, 7, 7]       --                   False
│    └─Conv2d (0)                        [8, 3, 224, 224]     [8, 64, 224, 224]    (1,792)              False
│    └─ReLU (1)                          [8, 64, 224, 224]    [8, 64, 224, 224]    --                   --
│    └─Conv2d (2)                        [8, 64, 224, 224]    [8, 64, 224, 224]    (36,928)             False
│    └─ReLU (3)                          [8, 64, 224, 224]    [8, 64, 224, 224]    --                   --
│    └─MaxPool2d (4)                     [8, 64, 224, 224]    [8, 64, 112, 112]    --                   --
│    └─Conv2d (5)                        [8, 64, 112, 112]    [8, 128, 112, 112]   (73,856)             False
│    └─ReLU (6)                          [8, 128, 112, 112]   [8, 128, 112, 112]   --                   --
│    └─Conv2d (7)                        [8, 128, 112, 112]   [8, 128, 112, 112]   (147,584)            False
│    └─ReLU (8)                          [8, 128, 112, 112]   [8, 128, 112, 112]   --                   --
│    └─MaxPool2d (9)                     [8, 128, 112, 112]   [8, 128, 56, 56]     --                   --
│    └─Conv2d (10)                       [8, 128, 56, 56]     [8, 256, 56, 56]     (295,168)            False
│    └─ReLU (11)                         [8, 256, 56, 56]     [8, 256, 56, 56]     --                   --
│    └─Conv2d (12)                       [8, 256, 56, 56]     [8, 256, 56, 56]     (590,080)            False
│    └─ReLU (13)                         [8, 256, 56, 56]     [8, 256, 56, 56]     --                   --
│    └─Conv2d (14)                       [8, 256, 56, 56]     [8, 256, 56, 56]     (590,080)            False
│    └─ReLU (15)                         [8, 256, 56, 56]     [8, 256, 56, 56]     --                   --
│    └─MaxPool2d (16)                    [8, 256, 56, 56]     [8, 256, 28, 28]     --                   --
│    └─Conv2d (17)                       [8, 256, 28, 28]     [8, 512, 28, 28]     (1,180,160)          False
│    └─ReLU (18)                         [8, 512, 28, 28]     [8, 512, 28, 28]     --                   --
│    └─Conv2d (19)                       [8, 512, 28, 28]     [8, 512, 28, 28]     (2,359,808)          False
│    └─ReLU (20)                         [8, 512, 28, 28]     [8, 512, 28, 28]     --                   --
│    └─Conv2d (21)                       [8, 512, 28, 28]     [8, 512, 28, 28]     (2,359,808)          False
│    └─ReLU (22)                         [8, 512, 28, 28]     [8, 512, 28, 28]     --                   --
│    └─MaxPool2d (23)                    [8, 512, 28, 28]     [8, 512, 14, 14]     --                   --
│    └─Conv2d (24)                       [8, 512, 14, 14]     [8, 512, 14, 14]     (2,359,808)          False
│    └─ReLU (25)                         [8, 512, 14, 14]     [8, 512, 14, 14]     --                   --
│    └─Conv2d (26)                       [8, 512, 14, 14]     [8, 512, 14, 14]     (2,359,808)          False
│    └─ReLU (27)                         [8, 512, 14, 14]     [8, 512, 14, 14]     --                   --
│    └─Conv2d (28)                       [8, 512, 14, 14]     [8, 512, 14, 14]     (2,359,808)          False
│    └─ReLU (29)                         [8, 512, 14, 14]     [8, 512, 14, 14]     --                   --
│    └─MaxPool2d (30)                    [8, 512, 14, 14]     [8, 512, 7, 7]       --                   --
├─AdaptiveAvgPool2d (avgpool)            [8, 512, 7, 7]       [8, 512, 7, 7]       --                   --
├─Sequential (classifier)                [8, 25088]           [8, 8]               --                   True
│    └─Linear (0)                        [8, 25088]           [8, 4096]            102,764,544          True
│    └─ReLU (1)                          [8, 4096]            [8, 4096]            --                   --
│    └─Dropout (2)                       [8, 4096]            [8, 4096]            --                   --
│    └─Linear (3)                        [8, 4096]            [8, 4096]            16,781,312           True
│    └─ReLU (4)                          [8, 4096]            [8, 4096]            --                   --
│    └─Dropout (5)                       [8, 4096]            [8, 4096]            --                   --
│    └─Linear (6)                        [8, 4096]            [8, 8]               32,776               True
========================================================================================================================
Total params: 134,293,320
Trainable params: 119,578,632
Non-trainable params: 14,714,688
Total mult-adds (Units.GIGABYTES): 123.84
========================================================================================================================
Input size (MB): 4.82
…
